chaos.tflite (tflite, 206964 bytes, 9 tensors)

arith.constant f4 [1, 32]
00000000: fe6b a6be 52e9 3d3e fda6 903d 6f04 0e3e
00000010: 8909 123e 3516 86bd dcd0 8ebc 10e6 a83c
00000020: 6bfa 253d 68f4 afbe 8eeb 993d d1c7 9f3d
00000030: 5bde a2be 6b1f 903d 866d b0be 15e5 aabe
00000040: 6a45 abbe 1cd2 193e ec5b 9fbe 1951 a7be
00000050: b129 acbe 3b82 a4be 31e0 2b3e 699b 32be
00000060: 27fe bebc 90d4 e73d e821 84be c669 763e
00000070: 19a6 8f3d df5e 5fbd e766 dd3b 3cbb a53d
-0.32504267 0.18546036 0.070631005 0.13868879 0.1426145 -0.065472044 -0.017433576 0.020617515
0.04052202 -0.34366155 0.075156316 0.07801784 -0.3181027 0.070372425 -0.3445856 -0.333779
-0.33451396 0.15021557 -0.31124818 -0.3267906 -0.33625558 -0.32130608 0.16784741 -0.17442097
-0.023314549 0.1131984 -0.25807118 0.24063787 0.070141025 -0.054533836 0.0067566517 0.08092353

arith.constant1 f4 [32, 32]
00000000: 224a 033c f04b f8bd 15e7 36bd 290a dcbd
00000010: f40a fcbd 0232 a9bd ea9f 113e 4643 ad3d
00000020: 7575 17bd dda1 163e c75c 133d bedc e73d
00000030: a441 383e 1f3e 22be 6968 413e 5078 043e
00000040: 0cba c03c 3c18 9b3b 42fb 8b3d a902 213e
00000050: c27b 13be f593 58bd 0978 d3bd 7fa5 363e
00000060: 5354 813c 36c4 b2bd 6a8e 093e 00c5 a0bd
00000070: 1eae 0f3e 9296 a53d d732 493d d0ae 093e
00000080: 110c 8cbd fdf6 08be cc20 1f3e ee1f debd
00000090: df28 143e e18e 1abd e57e 743d 3e5b e23d
000000a0: 0dd8 1d3e b09b 953b 8885 bb3d 741b 413d
000000b0: 4445 bb3d c421 5bbd 64b8 0ebe 0477 23be
000000c0: ff16 fb3c 3725 683d 3076 6e3d ba56 313e
000000d0: 4485 d93d 7ee4 5b3b 6184 e13c d5f5 043c
000000e0: 3004 2fbe 8404 513d 3d8d b83d cee6 3cba
000000f0: e73a 20be a8e4 d7bd d82a 01be 510d ad3c
00000100: 4b52 8abd c386 bfbc 9f39 fdbd 6cde 9e3d
00000110: d519 2bbe aaae 87bc 26dd 19be 8a9a 08be
00000120: 6a46 dd3d b971 8bbc 60da d13c a19c fb3c
00000130: 808b 36be e6f5 88bd 23d6 5e3c a199 373d
00000140: 7726 413d 416c 09be 7b6c 8c3d b712 ec3d
00000150: 0ed3 0e3e a630 abbc 1a6d 18bd 2796 b43a
00000160: 254e d73d c207 40bd 48e5 293d 999f e23d
00000170: 011e 1d3e 041c 4dba f824 17be ea26 ffbd
00000180: 7dd3 243e 188f c9bd e0c8 a2bd b20b 0abe
00000190: f3cf 51be 6486 33be 2604 a93d 0e72 903c
000001a0: efe3 883c a466 b1bd 588a b93c 8c28 30bd
000001b0: 0da7 cbbd 44ff d2bd d292 c13d 77b2 e43c
000001c0: 3d3d 663d 265f 493d 4814 18be 5de2 333c
000001d0: 6524 b83d 3462 49be 98a9 a3bd 7a67 b0bd
000001e0: 114e 0b3e 3497 b63b d8ff bd3d 8669 c93c
000001f0: c06e 883d d709 a23c 5668 fc3d f58c 663c
00000200: 8dbe 88bd 2651 17be 4430 c83d 33d3 803b
00000210: 4e29 93bd 1dd4 313e 12a0 fb3d a1bb 85bd
00000220: d566 2f3e 01f3 e0bd 9c9e 553d 35dc 0cbd
00000230: 2ef3 dfbc 0e77 3e3d 6a3d 30be 38eb c63a
00000240: 75d5 b4bd cea3 aa3d e6bb 683c 7dd9 893a
00000250: 1b90 b3bd bc13 ec3b 515e edbd ebbf c43d
00000260: 7817 91bb cbfc fcbc c809 da3a 6b84 e63d
00000270: 48fd c1bd a4d5 30bc d788 fc3b b996 9d3d
00000280: a16f 8cbd 9779 29be d331 2e3e 4a9e 93bd
00000290: bb37 8a3a 7d42 a73d e167 2a3e 5f1a 1bbe
000002a0: 3360 80bd 3206 c53d 1c99 373e 7fd3 7a3d
000002b0: 1f8d aebd 621d adbc 891d 10be e7dc 13bd
000002c0: 8c85 2e3e 35c8 7eba 4c3e c63c 7a31 dabd
000002d0: 86fc 2abe c84a 15be 5499 adbd e260 2b3d
000002e0: 40c7 eabd e5a4 ce3d dbe0 253d 4b50 4f3d
000002f0: a5b2 e3bb 9843 23bd f95b e639 6278 f13c
00000300: d916 223e 821f 203d 3733 563d 5169 343d
00000310: 5dbc 703d 83f9 a9bd cbad 2ebd 40f0 e83c
00000320: e12a 98bd 44c6 dbbd d7f2 d63d f16b a0bd
00000330: ffe4 22bd 7fc0 213d 85c1 87bd 74b5 9ebd
00000340: a36a 57bd 35f3 a7bd 9679 80bd 8893 ef3d
00000350: 7713 27be 47fd 6dbc 1260 133e 1e2c cabd
00000360: ccd9 223d 525a 20be 4bde f93d e16e e9bc
00000370: aea0 16be 419a 923d 40f1 24be 7a11 043e
00000380: 4fa5 ddbd 2834 a33d 01c0 cbbd 6faa dd3d
00000390: 4090 d9bd e9e3 cd3d 6477 c0bd b938 e83d
000003a0: 8331 a13d 1d63 0ebe ed05 dc3d cae5 d73d
000003b0: ae0c 96bc 32a6 2f3e 2d7f c8bd 0517 43be
000003c0: 54ec bd3c edad e93d 5ddb 99bd 17c5 0f3e
000003d0: 9a4f c0bd 8f62 0b3e fcc9 d1bd 1561 8d3c
000003e0: 2c56 82bd 92df f63d 971a 5abe 5268 473c
000003f0: dcfe f1bd 5a13 3cbd 679e d93c 4266 28bc
0.00801328 -0.12123859 -0.04465397 -0.107441254 -0.12306777 -0.08261491 0.14221159 0.08460097
-0.03697725 0.14710183 0.03597715 0.113214 0.1799379 -0.1584401 0.18887486 0.1293652
0.023526214 0.0047331136 0.06835033 0.15723671 -0.14402679 -0.052875478 -0.10325629 0.17836569
0.01578728 -0.087288305 0.13433233 -0.07850075 0.14031264 0.0808536 0.04912075 0.13445592
-0.06838239 -0.13375469 0.15539855 -0.10845934 0.14468716 -0.037733916 0.05969133 0.11052559
0.15414448 0.0045656785 0.091563284 0.047145322 0.09144071 -0.053499 -0.13937527 -0.1596337
0.030650614 0.056676116 0.05821818 0.1731824 0.106211215 0.003355294 0.027528943 0.008115252
-0.17091441 0.051029697 0.09011314 -0.00072060234 -0.1564747 -0.105416596 -0.12614 0.021124514
-0.067539774 -0.02337969 -0.12364506 0.07757267 -0.16709073 -0.016562779 -0.15025768 -0.13340202
0.10804446 -0.017022 0.025616825 0.030714335 -0.17826653 -0.066875264 0.013600859 0.044824246
0.047155824 -0.13420202 0.068566285 0.11527007 0.13947698 -0.02089722 -0.037213422 0.0013777659
0.10512952 -0.0468824 0.041478425 0.11065597 0.15343477 -0.0007824304 -0.14760196 -0.12458594
0.16096301 -0.09841746 -0.0794847 -0.13481024 -0.20489483 -0.17531735 0.082527444 0.01763251
0.01671025 -0.08662155 0.022648975 -0.04300742 -0.09943972 -0.10302594 0.09451832 0.02791713
0.056210745 0.049163006 -0.14851487 0.010979262 0.08991317 -0.19666368 -0.07991332 -0.086134866
0.13603999 0.005572224 0.09277314 0.02458645 0.06661749 0.019780083 0.12324588 0.014071693
-0.0667697 -0.1477705 0.09774831 0.003931427 -0.071856126 0.17366071 0.1228639 -0.06529928
0.17129071 -0.10983849 0.052153215 -0.034389693 -0.027337637 0.04650026 -0.17210928 0.0015176302
-0.08829776 0.083320245 0.014204955 0.0010517087 -0.0876772 0.007204501 -0.11590255 0.09606918
-0.0044278465 -0.03088226 0.0016634995 0.112557255 -0.09472138 -0.010793123 0.0077067423 0.07694764
-0.06857229 -0.16550289 0.17011194 -0.072079256 0.0010545173 0.081669785 0.16641189 -0.15146779
-0.062683485 0.09620322 0.179295 0.061236855 -0.085230105 -0.021132175 -0.14073767 -0.03609934
0.17043132 -0.0009719164 0.024199627 -0.10653968 -0.16697893 -0.14579308 -0.08476511 0.04184044
-0.11463785 0.10090045 0.040497642 0.050613683 -0.0069487863 -0.039859384 0.00043937544 0.029476348
0.15829028 0.03909255 0.052294936 0.04404575 0.058773387 -0.08299544 -0.04264621 0.028434873
-0.074300535 -0.107311755 0.10495537 -0.07833088 -0.03976917 0.03949022 -0.06628708 -0.07749453
-0.05259193 -0.08200685 -0.06273191 0.11698061 -0.16316019 -0.014525718 0.14392117 -0.09871696
0.03975849 -0.15659454 0.12200602 -0.028495254 -0.14709732 0.07158328 -0.16107655 0.12897292
-0.10822546 0.079689324 -0.09948731 0.10823523 -0.10623217 0.10053236 -0.09397772 0.11338944
0.07870772 -0.13904996 0.10743318 0.10541876 -0.018316593 0.17153242 -0.09789882 -0.1905175
0.02318398 0.11410127 -0.07512543 0.14040028 -0.09390183 0.13611816 -0.102436036 0.017258206
-0.06364092 0.120543614 -0.21299206 0.012170868 -0.11816189 -0.045916893 0.02656479 -0.010278286

arith.constant2 f4 [32, 1536]
00000000: 5f03 29bb e6c1 c4bc 36d7 4c3c ff10 2abc
00000010: 9de7 783c 2286 e33a d694 383c 66b5 403b
00000020: 359d 7bba 5ab4 33bc eede 603c 3a01 0c3c
00000030: d6f2 5f3b 6355 61bc 8087 853c 2be2 22bc
00000040: b22b faba 0409 ab3c da2c 13bc 0d7b 1cbc
00000050: bd9a 3ebc 0c59 0d3b 1c8f 603c 0c7a 343a
00000060: 93fe 5d3c b3a7 8f3b e42f 913b be4e 193c
00000070: 98a1 d5bc fb97 5b3c 3821 d23b 591e 8b3a
00000080: 6035 973c 7aa0 97bc 0a99 a9bc 93e0 c2bc
00000090: 0536 b8bb db14 a6bb aa15 83bc e3fc 003c
000000a0: be34 b2bb 32ed dd3b f2c6 d1bc 6dc9 b7bc
000000b0: afb6 36bc 1ff7 68bc 79d2 e9bb 986b da3b
000000c0: a98d d03c ff15 e73c 7090 86bb 38fb 803b
000000d0: dc75 393c af94 213d 07bc 233c fcf9 aaba
000000e0: d523 723c 9f59 2a3b bd74 76ba 4fbd 0cb9
000000f0: fba3 7bbc 2bd4 eebc 5fe9 743b ea25 573c
00000100: 8af5 30bc 4620 aebc f35d 033d 4096 bfbc
00000110: ffa7 7cbc 2875 ebb8 cb48 d23b 1059 433b
00000120: fdba 6a3c 6bf1 51bb 08f6 783c edac bd3c
00000130: efaa a33b c71c 8fbc a36e 243c 4805 953a
00000140: 86f1 403c 03a0 13bc 30e0 7cbb e2b0 d33c
00000150: f7ea a03c 595d 873c 2cc2 57bc f0a9 abbb
00000160: 38de 73bc 7b26 c6bc e8ff 283c c87b 7fbc
00000170: 89c6 6b3b 7023 a53b bc14 3dbc 524a 27bc
00000180: 0489 cb3b 5488 4dbc 890b 65ba 426a 00bc
00000190: 7e5a 15bc 904a 6dbc 0c62 b3bc 2419 923c
000001a0: f87a 94bc c0cc f83a 282e 553c 7513 7ebc
000001b0: b224 a4bc 87d5 1b3d cdcb 46bc 5b01 8bb8
000001c0: a290 2b39 bfcb f73c d13e 813c bddc 5c3c
000001d0: 74b4 9abc 5ef0 1ebc 37f9 98b9 6114 86bb
000001e0: 9859 82bc 5755 18bb a0e9 473c c724 10bc
000001f0: 7069 2bbc 033f b73b a6b6 c83c a640 493c
00000200: db5b 42bb 38d3 d1bc ec25 61bc e389 48bb
00000210: dbee c7bc 9cfd 463c 0f87 66bc 3184 f8bb
00000220: 4fa6 5e3c 1d13 e1bc 201f 27bc d3aa 23bc
00000230: 6ca5 b73c a62c fbbb 9c33 353c d364 783c
00000240: a663 eabc c7db 6d3c 4aca 633c 4a64 1cbc
00000250: 7d07 2ebc e4fe a43b 42dc 81bb 8825 cdbc
00000260: 5888 87bc c119 c4bc 8a93 583c 4bb1 19bc
00000270: 9e00 d83b 695e 0f3c 86e5 93bb 0d2d ffbc
00000280: bbee 80bc 50ca 3cba 68cf be3c cbf2 833c
00000290: 753c d6bb f181 f938 885b d6bc 1494 873c
000002a0: 7427 b43c e494 0ebc 3afc 1cbc c2d8 06bd
000002b0: f293 073c 4a82 cc3b e05b 8b3c e66a 233a
000002c0: d30f 90bc 7e81 8cbc 2a8b 51bc bdca 8e3c
000002d0: 93fa 223b e6d0 993c b8bf 23bc 0f4f 6f3c
000002e0: 3318 4d3a f21b 9c3c d220 303c 5ea3 a93c
000002f0: 0d49 2f3b beb8 ab3c 8446 d1bc dae7 f13b
00000300: 5275 333c 355f d5bb 588f 3fbc 57b7 cabc
00000310: c81a c63c 05e3 c6bc 74d6 b7bb c668 143c
00000320: 2405 313c 4c37 33bc 355c 9c3c cf9e cfbb
00000330: ceff c5bb 44e6 213c 6de7 0abc 496e 5dbc
00000340: 1d43 29bc 7847 af3b 91b0 47bc c13c 053b
00000350: 8842 4ebc c261 7ebc fa68 3abc 0abe 283c
00000360: 30b3 b7bb 059f c33b 1270 4ebc e194 c4bb
00000370: 6c00 923c 9c1b afbc 0d89 90bc 0c5b 8bbc
00000380: fbf4 1e3c 377b e0bb f0b0 28bc 494e 56bc
00000390: 5c84 223c 291e 8abc 3601 85bc f622 3f38
000003a0: 3faa e33c 4010 f93c 3e00 6ebc 64dc 7b3b
000003b0: 4a64 b0bc d04a 0d3c a466 04bc 5d9a d6bc
000003c0: 1671 17bc 049e 81b9 d8d8 2fbb f5b2 8e39
000003d0: fa4a 3bbc b708 373c b770 a1bc ea50 2abc
000003e0: c7c6 d739 d1c8 323c 8deb 303a eadd 35bc
000003f0: e5cb a33c c334 cf3c 11fc 343c 6594 7dbc
-0.0025789363 -0.02401824 0.012502482 -0.010380029 0.01519194 0.00173587 0.011265954 0.0029404997
-0.0009598316 -0.010968292 0.013725026 0.008545214 0.003417184 -0.013753268 0.016299963 -0.009941618
-0.0019086509 0.020878322 -0.008982861 -0.009550822 -0.011633572 0.0021567969 0.013705995 0.00068846415
0.013549465 0.004384005 0.004430758 0.0093571525 -0.02607803 0.013402934 0.0064126514 0.0010613903
0.018458068 -0.018509138 -0.020702858 -0.023788726 -0.005621674 -0.005068404 -0.016001541 0.007872793
-0.0054384163 0.0067726607 -0.02560756 -0.022434914 -0.011151954 -0.0142190745 -0.007135686 0.006665658
0.025458174 0.02820873 -0.0041065738 0.0039361976 0.011319604 0.039448436 0.00999356 -0.0013044472
0.014779051 0.002599336 -0.00094015506 -0.00013421963 -0.01535892 -0.029153904 0.0037370545 0.013131598
-0.010800729 -0.021255624 0.03207202 -0.023387074 -0.015420913 -0.00011227495 0.006417369 0.0029807724
0.014326808 -0.0032034765 0.015195377 0.023153747 0.004994742 -0.017469777 0.0100361435 0.0011369372
0.011776334 -0.009010318 -0.0038585775 0.02584118 0.01964329 0.016524004 -0.013168853 -0.005238764
-0.014884524 -0.02418827 0.010314919 -0.015593477 0.003597649 0.005039625 -0.011540588 -0.01021059
0.006211402 -0.01254471 -0.00087373756 -0.007837834 -0.009115813 -0.014483109 -0.021897338 0.017834254
-0.018125042 0.0018981919 0.013011493 -0.015507569 -0.020037029 0.038045432 -0.012133551 -6.628289e-05
0.00016361711 0.03024852 0.015777024 0.0134803625 -0.018884875 -0.009700863 -0.0002917738 -0.004091785
-0.015911862 -0.0023244226 0.012201697 -0.008797831 -0.01046215 0.0055922284 0.024501156 0.01228348
-0.00296568 -0.025613412 -0.013741951 -0.0030599765 -0.024405887 0.012145426 -0.014070286 -0.007584118
0.013589456 -0.027474934 -0.010200292 -0.009989458 0.022417746 -0.0076652346 0.011059668 0.015160757
-0.02861197 0.014517731 0.01390321 -0.009545395 -0.0106219025 0.005035268 -0.0039630244 -0.02504231
-0.016544506 -0.023938062 0.01321877 -0.009380649 0.0065918704 0.0087505365 -0.0045134453 -0.031149412
-0.015738836 -0.0007201778 0.023292258 0.016106984 -0.0065379688 0.00011897449 -0.026166692 0.016550101
0.021991469 -0.0087024905 -0.00958162 -0.03292156 0.008275019 0.0062411176 0.017011583 0.00062338857
-0.01758567 -0.01715159 -0.012789527 0.017430658 0.0024868592 0.018776368 -0.00999444 0.014606251
0.00078237354 0.019056294 0.0107500125 0.020707782 0.0026746423 0.020962115 -0.02554632 0.007382375
0.010953264 -0.0065115937 -0.011691891 -0.024745626 0.024182692 -0.024278173 -0.0056102816 0.009058183
0.010804448 -0.010938477 0.019086936 -0.00633607 -0.006042457 0.00988156 -0.008478028 -0.013515064
-0.010330942 0.005349096 -0.012188093 0.0020330402 -0.0125891045 -0.015526237 -0.011377567 0.010299215
-0.0056060776 0.0059698843 -0.012599962 -0.005999193 0.017822467 -0.02137547 -0.017643476 -0.017011188
0.009701963 -0.006850626 -0.010296091 -0.013080188 0.009919252 -0.016860085 -0.016235929 4.557051e-05
0.02779114 0.030403256 -0.014526425 0.0038430924 -0.021532197 0.008623794 -0.008081112 -0.026196653
-0.00924327 -0.00024722528 -0.002683213 0.00027217684 -0.01143145 0.011171511 -0.019707067 -0.010395268
0.00041156096 0.010912136 0.0006748967 -0.011100272 0.019994685 0.025293713 0.011046425 -0.015477275

model_8/tf.__operators__.add/AddV2/y f4 [32]
00000000: 7bb8 893c ea54 ce3b f2dc aabc 2703 d2bb
00000010: 8133 d23c 55d5 0fbc 91ef a63c 1007 2f3c
00000020: d401 0dba d3d9 803c 2931 29bb c5d4 d0bc
00000030: fd71 7dbc 31bb a23c 65da a8bc ec48 743b
00000040: 6ef1 aebc 4255 95bc 3469 abbc 67a9 10bb
00000050: c86d 31bc 6039 1dbb 355d f4bb 0533 4a3c
00000060: a71e 57bb d3b9 f637 b5a2 a23c 7b02 5e3b
00000070: d7c3 613c dbc2 f83a c607 573c d33b 98bb
0.0168116 0.0062967436 -0.020857308 -0.006409067 0.025659325 -0.00877889 0.020377906 0.010682836
-0.00053789956 0.015728867 -0.0025816655 -0.025492081 -0.015469071 0.01986465 -0.020611951 0.003727491
-0.021355357 -0.01822913 -0.020924188 -0.0022073628 -0.010829397 -0.0023990497 -0.0074574 0.012341266
-0.0032824667 2.9412016e-05 0.019852975 0.003387599 0.013779602 0.001897897 0.013124412 -0.0046458035

model_8/tf.__operators__.add_1/AddV2/y f4 [32]
00000000: 94b7 0cbe 4824 14be cc65 36bd 07cd 98bd
00000010: 4974 99bd d179 12be 0633 293e 1b39 203d
00000020: 644d 3abe 352d a4bd 1bc7 543d 8e6b 0d3d
00000030: c676 de3d 7ffb 19bd 3098 ca3d 76c9 f03d
00000040: b6a5 173e c359 223e 9801 333e 4371 6abd
00000050: 1ab1 a63c efe0 d0bd 922c 3ebd 5f46 69bd
00000060: f861 233d 7af6 2fbd f624 cebd 9175 f53b
00000070: b777 d7bd 3eaa 58bd 03d6 963c f948 b5bd
-0.13741904 -0.14466965 -0.044530675 -0.07460981 -0.07492883 -0.14304282 0.1652337 0.03911696
-0.18193585 -0.08016435 0.051947694 0.0345264 0.10862498 -0.03759336 0.09892309 0.117571756
0.14809307 0.15854554 0.17481077 -0.05723692 0.02034812 -0.10199153 -0.046429224 -0.056951877
0.039888352 -0.042959668 -0.100656435 0.0074908216 -0.10520881 -0.05289673 0.018412596 -0.08851809

model_8/tf.math.add_2/Add/y f4 [1, 32]
00000000: 5584 8cbc 1d54 95bc d6c8 29bc ce7e 293c
00000010: 5ab6 5a3c a902 59ba 3a7b 04bc 0779 84bc
00000020: a40d 2f3d 1f4f 6cbc 4a53 7d3c 498e 32bc
00000030: 71c4 6b3c 3466 81bc e46b 853c 872a c13b
00000040: 01c3 18ba b498 d13b a80c 523c 68b4 8abc
00000050: a674 33bc 90cb a73c 2c83 fb3b c87d af3c
00000060: 99fc dab9 a1cc 343c d082 9e3b e693 d03b
00000070: 1d33 893c cb27 933b fced 3d3c 15bd 5b3b
-0.017152945 -0.018228585 -0.010362824 0.010345174 0.01334914 -0.00082782895 -0.00808602 -0.016170992
0.042737618 -0.014423161 0.015461752 -0.010898181 0.014390097 -0.015795805 0.016286798 0.005894962
-0.00058273977 0.0063963775 0.0128204 -0.016931728 -0.010953104 0.020482808 0.007675549 0.021422282
-0.000417684 0.011035115 0.0048373714 0.006365287 0.016748006 0.0044908277 0.011592384 0.003352945

model_8/tf.math.add_5/Add/y f4 [1, 32]
00000000: 94ab 6b3e cfc7 413d 9fc0 c23c 3536 a2bb
00000010: 975a d33d 868f 71bd bfaa 35bd 89ca abbc
00000020: 9c05 f43c 01e1 543e 4633 293d c9b5 d33d
00000030: 4c78 783e 586b f23c a740 573e 351c 5d3e
00000040: 63ee 583e 9365 5a3d 053e 743e 8f4e 603e
00000050: 5f78 5a3e d6dc 813e 578c eb3c 365a bd3c
00000060: 61ef 293d 0df4 2d3d 00af 803e ec60 8f3d
00000070: 2f69 463d cae6 a9bd 1f72 f9ba d784 2b3d
0.2301467 0.047309693 0.02377349 -0.0049503096 0.10320013 -0.058974765 -0.04435229 -0.0209706
0.029787831 0.20788957 0.041308664 0.10337407 0.2426464 0.029592201 0.21020757 0.21592791
0.21184687 0.053319525 0.23851784 0.21904968 0.2133498 0.25363797 0.028753443 0.023114305
0.041488055 0.042469073 0.25133514 0.07000908 0.048440155 -0.08295973 -0.0019031203 0.041874733

model_8/tf.math.multiply_10/Mul/y f4 [1, 32]
00000000: 99f6 7a3f 3cb3 7e3f 8de6 7d3f 432e 7e3f
00000010: 6eb7 813f 7fcc 7f3f 3f42 7f3f 1b87 7d3f
00000020: 3147 853f 7c4b 7f3f 94d7 753f 2c86 7f3f
00000030: 3e27 7e3f c246 7e3f d588 803f fc02 833f
00000040: 59dc 7f3f 818c 763f e836 823f 3c3b 7f3f
00000050: 3279 7f3f 1b48 833f 56c9 813f 032e 833f
00000060: 64e6 7f3f 0038 7d3f 5af6 7e3f d4f9 823f
00000070: 8227 863f 6890 7b3f 42d1 783f 1097 823f
0.9803253 0.9949224 0.9917992 0.9928934 1.0134103 0.9992141 0.9971046 0.9903428
1.0412351 0.99724555 0.9603207 0.99814105 0.9927863 0.9932672 1.0041758 1.0235286
0.999456 0.9630814 1.0173006 0.9969976 0.99794304 1.025638 1.0139568 1.0248417
0.99960923 0.98913574 0.9959465 1.0232491 1.0480807 0.9826722 0.971943 1.0202351

model_8/tf.math.multiply_22/Mul/y f4 [1, 32]
00000000: 0fc0 a13f 468b 873f 0304 863f 975a 7f3f
00000010: f84b 8e3f de4d 743f 39ab 713f 7d66 783f
00000020: cbb6 823f 58e6 983f a6f1 853f 15e7 8a3f
00000030: fea9 a53f 4191 853f 5c38 993f 8ac6 9b3f
00000040: 4f8b 9a3f 6eb1 8a3f 6f58 a33f 21ad 9c3f
00000050: a837 9a3f f579 a83f 56e5 843f e3e3 803f
00000060: 8913 843f 20bf 853f e6b5 a33f 239a 8a3f
00000070: 138a 883f fd1a 6f3f fad6 7f3f e5fe 8a3f
1.2636737 1.0589378 1.0469974 0.99747604 1.1116934 0.95431316 0.9440189 0.97031385
1.0212034 1.1945295 1.046437 1.0851771 1.2942502 1.0434953 1.1970325 1.2169964
1.2073764 1.0835397 1.2761363 1.2240335 1.2048235 1.3162218 1.0382488 1.0069546
1.0318462 1.0448952 1.2789886 1.0828289 1.0667137 0.93400556 0.99937403 1.0859038
